1699896727.9600387
(450, 256, 256)
ConvAutoencoder5Conv2ds(
  (encoder): Sequential(
    (0): Conv2d(1, 16, kernel_size=(2, 2), stride=(2, 2))
    (1): ReLU(inplace=True)
    (2): Conv2d(16, 32, kernel_size=(2, 2), stride=(2, 2))
    (3): ReLU(inplace=True)
    (4): Conv2d(32, 64, kernel_size=(2, 2), stride=(2, 2))
    (5): ReLU(inplace=True)
    (6): Conv2d(64, 128, kernel_size=(2, 2), stride=(2, 2))
    (7): ReLU(inplace=True)
    (8): Conv2d(128, 256, kernel_size=(2, 2), stride=(2, 2))
    (9): ReLU(inplace=True)
  )
  (decoder): Sequential(
    (0): ConvTranspose2d(256, 128, kernel_size=(2, 2), stride=(2, 2))
    (1): ReLU(inplace=True)
    (2): ConvTranspose2d(128, 64, kernel_size=(2, 2), stride=(2, 2))
    (3): ReLU(inplace=True)
    (4): ConvTranspose2d(64, 32, kernel_size=(2, 2), stride=(2, 2))
    (5): ReLU(inplace=True)
    (6): ConvTranspose2d(32, 16, kernel_size=(2, 2), stride=(2, 2))
    (7): ReLU(inplace=True)
    (8): ConvTranspose2d(16, 1, kernel_size=(2, 2), stride=(2, 2))
    (9): Identity()
  )
)
Epoch [1/1000], Loss: 0.0693
Epoch [2/1000], Loss: 0.0583
Epoch [3/1000], Loss: 0.0535
Epoch [4/1000], Loss: 0.0512
Epoch [5/1000], Loss: 0.0499
Epoch [6/1000], Loss: 0.0588
Epoch [7/1000], Loss: 0.0466
Epoch [8/1000], Loss: 0.0428
Epoch [9/1000], Loss: 0.0405
Epoch [10/1000], Loss: 0.0387
Epoch [11/1000], Loss: 0.0364
Epoch [12/1000], Loss: 0.0341
…
