1699972506.8270092
1
21
41
61
81
101
121
141
161
181
201
221
241
261
281
301
321
341
361
381
(20, 256, 256)
ConvAutoencoder5Conv2ds(
  (encoder): Sequential(
    (0): Conv2d(1, 16, kernel_size=(2, 2), stride=(2, 2))
    (1): ReLU(inplace=True)
    (2): Conv2d(16, 32, kernel_size=(2, 2), stride=(2, 2))
    (3): ReLU(inplace=True)
    (4): Conv2d(32, 64, kernel_size=(2, 2), stride=(2, 2))
    (5): ReLU(inplace=True)
    (6): Conv2d(64, 128, kernel_size=(2, 2), stride=(2, 2))
    (7): ReLU(inplace=True)
    (8): Conv2d(128, 256, kernel_size=(2, 2), stride=(2, 2))
    (9): ReLU(inplace=True)
  )
  (decoder): Sequential(
    (0): ConvTranspose2d(256, 128, kernel_size=(2, 2), stride=(2, 2))
    (1): ReLU(inplace=True)
    (2): ConvTranspose2d(128, 64, kernel_size=(2, 2), stride=(2, 2))
    (3): ReLU(inplace=True)
    (4): ConvTranspose2d(64, 32, kernel_size=(2, 2), stride=(2, 2))
    (5): ReLU(inplace=True)
    (6): ConvTranspose2d(32, 16, kernel_size=(2, 2), stride=(2, 2))
    (7): ReLU(inplace=True)
    (8): ConvTranspose2d(16, 1, kernel_size=(2, 2), stride=(2, 2))
    (9): Identity()
  )
)
Epoch [1/3000], Loss: 2.3068
Epoch [2/3000], Loss: 2.2983
Epoch [3/3000], Loss: 2.2896
Epoch [4/3000], Loss: 2.2798
Epoch [5/3000], Loss: 2.2670
Epoch [6/3000], Loss: 2.2457
Epoch [7/3000], Loss: 2.1989
Epoch [8/3000], Loss: 2.1018
Epoch [9/3000], Loss: 1.9837
Epoch [10/3000], Loss: 2.0583
Epoch [11/3000], Loss: 1.8570
Epoch [12/3000], Loss: 1.8258
…
