1699872538.3171508
ConvAutoencoder5Conv2ds(
  (encoder): Sequential(
    (0): Conv2d(2, 16, kernel_size=(2, 2), stride=(2, 2))
    (1): ReLU(inplace=True)
    (2): Conv2d(16, 32, kernel_size=(2, 2), stride=(2, 2))
    (3): ReLU(inplace=True)
    (4): Conv2d(32, 64, kernel_size=(2, 2), stride=(2, 2))
    (5): ReLU(inplace=True)
    (6): Conv2d(64, 32, kernel_size=(2, 2), stride=(2, 2))
    (7): ReLU(inplace=True)
    (8): Conv2d(32, 16, kernel_size=(2, 2), stride=(2, 2))
    (9): ReLU(inplace=True)
    (10): Conv2d(16, 16, kernel_size=(2, 2), stride=(2, 2))
    (11): ReLU(inplace=True)
    (12): Conv2d(16, 16, kernel_size=(2, 2), stride=(2, 2))
    (13): ReLU(inplace=True)
  )
  (decoder): Sequential(
    (0): ConvTranspose2d(16, 16, kernel_size=(2, 2), stride=(2, 2))
    (1): ReLU(inplace=True)
    (2): ConvTranspose2d(16, 16, kernel_size=(2, 2), stride=(2, 2))
    (3): ReLU(inplace=True)
    (4): ConvTranspose2d(16, 32, kernel_size=(2, 2), stride=(2, 2))
    (5): ReLU(inplace=True)
    (6): ConvTranspose2d(32, 64, kernel_size=(2, 2), stride=(2, 2))
    (7): ReLU(inplace=True)
    (8): ConvTranspose2d(64, 32, kernel_size=(2, 2), stride=(2, 2))
    (9): ReLU(inplace=True)
    (10): ConvTranspose2d(32, 16, kernel_size=(2, 2), stride=(2, 2))
    (11): ReLU(inplace=True)
    (12): ConvTranspose2d(16, 2, kernel_size=(2, 2), stride=(2, 2))
    (13): Identity()
  )
)
Epoch [1/1000], Loss: 0.7082
Epoch [2/1000], Loss: 0.5238
Epoch [3/1000], Loss: 0.2901
Epoch [4/1000], Loss: 0.1767
Epoch [5/1000], Loss: 0.1430
Epoch [6/1000], Loss: 0.1379
Epoch [7/1000], Loss: 0.1335
Epoch [8/1000], Loss: 0.1319
Epoch [9/1000], Loss: 0.1312
Epoch [10/1000], Loss: 0.1304
Epoch [11/1000], Loss: 0.1291
Epoch [12/1000], Loss: 0.1284
…
