1699634820.3154457
ConvAutoencoder5Conv2ds(
  (encoder): Sequential(
    (0): Conv2d(2, 16, kernel_size=(2, 2), stride=(2, 2))
    (1): ReLU(inplace=True)
    (2): Conv2d(16, 32, kernel_size=(2, 2), stride=(2, 2))
    (3): ReLU(inplace=True)
    (4): Conv2d(32, 64, kernel_size=(2, 2), stride=(2, 2))
    (5): ReLU(inplace=True)
    (6): Conv2d(64, 32, kernel_size=(2, 2), stride=(2, 2))
    (7): ReLU(inplace=True)
    (8): Conv2d(32, 16, kernel_size=(2, 2), stride=(2, 2))
    (9): ReLU(inplace=True)
  )
  (decoder): Sequential(
    (0): ConvTranspose2d(16, 32, kernel_size=(2, 2), stride=(2, 2))
    (1): ReLU(inplace=True)
    (2): ConvTranspose2d(32, 64, kernel_size=(2, 2), stride=(2, 2))
    (3): ReLU(inplace=True)
    (4): ConvTranspose2d(64, 32, kernel_size=(2, 2), stride=(2, 2))
    (5): ReLU(inplace=True)
    (6): ConvTranspose2d(32, 16, kernel_size=(2, 2), stride=(2, 2))
    (7): ReLU(inplace=True)
    (8): ConvTranspose2d(16, 2, kernel_size=(2, 2), stride=(2, 2))
    (9): Identity()
  )
)
Epoch [1/200], Loss: 0.2466
Epoch [2/200], Loss: 0.0903
Epoch [3/200], Loss: 0.0658
Epoch [4/200], Loss: 0.0621
Epoch [5/200], Loss: 0.0612
Epoch [6/200], Loss: 0.0609
Epoch [7/200], Loss: 0.0605
Epoch [8/200], Loss: 0.0600
Epoch [9/200], Loss: 0.0593
Epoch [10/200], Loss: 0.0587
Epoch [11/200], Loss: 0.0576
Epoch [12/200], Loss: 0.0571
…
