(32, 9600, 9600)
8
ConvAutoencoder5Conv2ds(
  (encoder): Sequential(
    (0): Conv2d(2, 16, kernel_size=(2, 2), stride=(2, 2))
    (1): ReLU(inplace=True)
    (2): Conv2d(16, 32, kernel_size=(2, 2), stride=(2, 2))
    (3): ReLU(inplace=True)
    (4): Conv2d(32, 64, kernel_size=(2, 2), stride=(2, 2))
    (5): ReLU(inplace=True)
    (6): Conv2d(64, 128, kernel_size=(2, 2), stride=(2, 2))
    (7): ReLU(inplace=True)
    (8): Conv2d(128, 256, kernel_size=(2, 2), stride=(2, 2))
    (9): ReLU(inplace=True)
  )
  (latentspace): Sequential(
    (0): Conv2d(256, 128, kernel_size=(5, 5), stride=(1, 1))
    (1): ReLU(inplace=True)
    (2): Conv2d(128, 128, kernel_size=(5, 5), stride=(1, 1))
    (3): ReLU(inplace=True)
    (4): Conv2d(128, 256, kernel_size=(5, 5), stride=(1, 1))
    (5): ReLU(inplace=True)
  )
  (decoder): Sequential(
    (0): ConvTranspose2d(256, 128, kernel_size=(2, 2), stride=(2, 2))
    (1): ReLU(inplace=True)
    (2): ConvTranspose2d(128, 64, kernel_size=(2, 2), stride=(2, 2))
    (3): ReLU(inplace=True)
    (4): ConvTranspose2d(64, 32, kernel_size=(2, 2), stride=(2, 2))
    (5): ReLU(inplace=True)
    (6): ConvTranspose2d(32, 16, kernel_size=(2, 2), stride=(2, 2))
    (7): ReLU(inplace=True)
    (8): ConvTranspose2d(16, 2, kernel_size=(2, 2), stride=(2, 2))
    (9): Identity()
  )
)
1699370891.995956
torch.Size([8, 2, 9600, 9600])
torch.Size([8, 9600, 2, 9600])
torch.Size([8, 2, 9600, 9600])
Epoch [1/50], Loss: 1.2443
torch.Size([8, 2, 9600, 9600])
torch.Size([8, 9600, 2, 9600])
torch.Size([8, 2, 9600, 9600])
Epoch [2/50], Loss: 1.2324
torch.Size([8, 2, 9600, 9600])
torch.Size([8, 9600, 2, 9600])
torch.Size([8, 2, 9600, 9600])
…
